run/baseline.pth (torch, 434933 bytes, 468 tensors)

attention_blocks.0.convs.0.model.att_src f4 [1, 1, 32]
-0.35713193 0.047762655 -0.354645 0.25821948 0.42677355 -0.18849611 0.03504501 -0.22465941
-0.2791404 -0.19940622 -0.17308244 0.10499468 -0.040649053 0.069726095 -0.2929988 -0.30658078
-0.3312191 -0.3391916 0.39164284 0.1445868 -0.39430648 -0.11209305 0.013934094 0.24478668
0.41607058 0.10089839 0.30381387 -0.11097918 -0.03610306 -0.21240152 0.11708086 0.39092988
00000000: ffd9 b6be c6a2 433d 0894 b5be 5835 843e
00000010: 1082 da3e 2005 41be 5b8b 0f3d 1e0d 66be
00000020: 7eeb 8ebe 2531 4cbe 863c 31be 7307 d73d
00000030: 9f7f 26bd 8ecc 8e3d f003 96be 28f8 9cbe
00000040: 8d95 a9be 85aa adbe 6985 c83e 900e 143e
00000050: 8ae2 c9be 0a91 e5bd d44b 643c 5ca9 7a3e
00000060: 3407 d53e d1a3 ce3d 7e8d 9b3e 0d49 e3bd
00000070: cde0 13bd c97f 59be 17c8 ef3d f627 c83e

attention_blocks.0.convs.0.model.att_dst f4 [1, 1, 32]
0.2703317 0.42580232 -0.19353786 -0.05370843 0.086655654 0.3448591 -0.39005658 -0.20837156
0.06252788 -0.2480298 0.15641181 -0.030367205 -0.111572124 0.22650255 0.30332533 0.41665167
0.19042201 -0.011944258 0.3468548 0.3406805 -0.21488386 0.19715878 0.051776238 -0.18544962
-0.10280707 -0.10142669 -0.29735014 -0.13256283 0.14418846 0.31081936 0.03104011 -0.4125804
00000000: eb68 8a3e c302 da3e ca2e 46be 5ffd 5bbd
00000010: 8578 b13d 5f91 b03e 7fb5 c7be 5b5f 55be
00000020: 9e0e 803d 86fb 7dbe 6b2a 203e a5c4 f8bc
00000030: ed7f e4bd 49f0 673e 754d 9b3e 5e53 d53e
00000040: fdfd 423e d9b1 43bc f496 b13e ad6d ae3e
00000050: 840a 5cbe fee3 493e 5213 543d 81e6 3dbe
00000060: 838c d2bd ccb8 cfbd 473e 98be 8dbe 07be
00000070: 24a6 133e b723 9f3e d447 fe3c bd3d d3be

attention_blocks.0.convs.0.model.bias f4 [32]
0.002244747 -0.077345245 0.0762971 -0.053840544 0.09270117 -0.11086071 -0.07521614 -0.071933046
-0.008103996 -0.056299366 0.045096684 -0.05723267 0.012865884 0.023813736 -0.0054252725 -0.047338556
0.023793442 0.03257441 0.11179553 -0.033964403 0.07597768 -0.019421749 -0.02766553 0.015702246
0.0688481 0.03761598 0.04116628 0.084316544 -0.0057908786 0.018962754 0.09523463 -0.011309341
00000000: 9b1c 133b 2f67 9ebd a741 9c3d e787 5cbd
00000010: 1cda bd3d f10a e3bd eb0a 9abd a251 93bd
00000020: 9fc6 04bc 2a9a 66bd 4db7 383d ce6c 6abd
00000030: 6ecb 523c 0615 c33c 7cc6 b1bb 13e6 41bd
00000040: 77ea c23c bf6c 053d 0ef5 e43d 421e 0bbd
00000050: 309a 9b3d 5c1a 9fbc d2a2 e2bc ffa1 803c
00000060: 3c00 8d3d 3713 1a3d f99d 283d 27ae ac3d
00000070: 69c1 bdbb c757 9b3c 600a c33d d04a 39bc

attention_blocks.0.convs.0.model.lin_src.weight f4 [32, 8]
0.1594009 -0.39800262 -0.42369583 -0.2980944 -0.31931967 0.0005310526 -0.35056072 -0.345525
0.17815334 -0.17908731 -0.10616316 -0.35523906 0.1763047 -0.020283828 -0.25012365 -0.29602167
0.22808525 0.21481787 0.37669188 0.24566516 0.14569418 -0.1617913 0.23871729 0.12953755
-0.29757527 0.25498885 0.2710345 -0.3106996 -0.1609518 -0.13966088 -0.3090725 0.15214656
-0.2687607 0.4190313 -0.22356544 0.26099467 -0.033862464 -0.13424858 0.39612746 -0.2605959
-0.31309253 -0.06758535 0.18927538 -0.27943477 -0.3720587 -0.3775195 -0.23227993 -0.2771819
-0.118059516 -0.29815817 0.17023402 -0.028144442 -0.23279674 -0.25858605 0.007540125 -0.020964932
0.2583184 -0.104250774 -0.33166292 -0.3551323 -0.15527318 -0.17531317 -0.011940236 -0.15888472
0.06466642 -0.16225187 0.17565727 0.04085977 -0.21499002 0.2994715 0.11863964 -0.32686403
-0.22520411 0.20739757 0.19445243 0.27320653 -0.014986676 0.23620926 0.08617941 0.023250666
0.019227978 0.430912 0.26109388 0.000639637 0.1759827 0.49094346 0.21963525 0.06456026
0.3372197 0.1063911 -0.17863716 -0.3746362 0.22654164 0.33479396 -0.30624688 0.13345666
0.094066 -0.047594633 0.016887475 0.1559946 0.1976698 0.3138171 0.14329277 0.25089604
0.43399274 0.16169198 0.21416506 -0.06802828 0.4372343 0.1378097 0.2199615 0.45879048
-0.0018023201 0.30851346 0.052054524 0.3934621 0.43243402 -0.08990224 -0.040508654 -0.13422085
-0.21474974 -0.1014442 -0.13765557 -0.2208354 -0.50032806 -0.33463767 -0.036443796 -0.22217412
0.3990662 0.39928305 0.3473885 0.22271264 -0.19123279 0.41688618 -0.3714695 -0.11719841
-0.31468415 0.15195648 -0.4321125 -0.21995907 -0.34531847 -0.27238125 -0.08659014 0.36904174
0.15129887 0.25381166 -0.12811458 0.5103741 0.1738075 -0.17811075 0.29983854 0.0573169
0.32117048 -0.29021633 -0.3970215 -0.32870787 0.10688194 -0.097021684 -0.3707725 0.00917384
0.005345707 0.19734947 -0.22031848 -0.24014974 0.25250593 -0.1356263 0.40026358 0.4127152
-0.35088852 -0.2186194 -0.09150945 -0.4320066 -0.012083306 -0.23439308 -0.13667145 -0.37422806
0.18034664 -0.25002494 -0.34238893 -0.14392096 -0.26597926 -0.43758035 0.14302187 -0.21632767
0.24108678 0.2602977 -0.2784965 -0.23212281 -0.15225916 0.22868264 0.05521411 -0.10453065
0.20657405 0.39723906 0.20589396 -0.28387928 -0.1420293 -0.063255854 0.44591838 -0.1843526
-0.1262454 0.053903695 0.066613115 0.22652376 0.20519383 -0.13666482 0.2733549 0.3333771
0.17601955 -0.30630288 0.35072115 0.3496307 0.2768121 -0.047730114 0.008471612 -0.04883307
0.4914576 0.51533264 0.028572194 -0.18056963 0.31120485 0.27257025 0.2377389 -0.22739732
0.06043405 -0.2076709 -0.4441132 -0.30950448 0.08778486 0.112582915 -0.3139178 0.18033881
0.39276955 0.33435363 0.38413715 0.015441804 0.4210265 0.387733 0.14060633 -0.20351887
-0.104302846 0.3934639 0.25477573 0.29258037 -0.15998898 -0.017703218 -0.1558648 -0.15989913
0.3389551 -0.32863778 0.023402486 0.123708785 -0.12217498 0.13381258 -0.10885185 0.21185715
00000000: fd39 233e 00c7 cbbe a9ee d8be d49f 98be
00000010: de7d a3be 5636 0b3a b27c b3be a7e8 b0be
00000020: d46d 363e aa62 37be 126c d9bd e5e1 b5be
00000030: 3889 343e 452a a6bc 3510 80be 2790 97be
00000040: 2e8f 693e 37f9 5b3e c2dd c03e a68f 7b3e
00000050: db30 153e 9eac 25be 4e72 743e 7ea5 043e
00000060: c95b 98be e68d 823e 09c5 8a3e 0514 9fbe
00000070: 8cd0 24be 4303 0fbe c03e 9ebe 4fcc 1b3e
00000080: 019b 89be 458b d63e 57ee 64be 18a1 853e
00000090: 5eb3 0abd 7678 09be 38d1 ca3e d36c 85be
000000a0: aa4d a0be 306a 8abd 68d1 413e 1312 8fbe
000000b0: 7a7e bebe 3c4a c1be cada 6dbe c9ea 8dbe
000000c0: 30c9 f1bd 30a8 98be d451 2e3e 2c8f e6bc
000000d0: 4562 6ebe 6465 84be 2713 f73b a6be abbc
000000e0: 4f42 843e 6e81 d5bd b9cf a9be e7d3 b5be
000000f0: efff 1ebe 4c85 33be fba0 43bc adb2 22be
00000100: d46f 843d 5b25 26be 80df 333e 935c 273d
00000110: 5826 5cbe 5454 993e 57f9 f23d b95a a7be
00000120: e89b 66be 0760 543e 8a1e 473e bae1 8b3e
00000130: ad8a 75bc d7e0 713e d57e b03d 2e78 be3c
00000140: fe83 9d3c 7fa0 dc3e 19ae 853e 50ad 273a
00000150: cf34 343e f15c fb3e 10e8 603e 2b38 843d
00000160: 0fa8 ac3e 94e3 d93d a9ec 36be 51d0 bfbe
00000170: 88fa 673e 1d6a ab3e 64cc 9cbe dda8 083e
00000180: ada5 c03d 97f2 42bd 9a57 8a3c 0cbd 1f3e
00000190: f469 4a3e a3ac a03e 57bb 123e 7275 803e
000001a0: 4c34 de3e 9592 253e 164e 5b3e 6952 8bbd
000001b0: 2ddd df3e fc1d 0d3e 963d 613e 96e6 ea3e
000001c0: d43b ecba 7af5 9d3e 2037 553d dd73 c93e
000001d0: fe67 dd3e aa1e b8bd 67ec 25bd 3171 09be
000001e0: 5be7 5bbe fac1 cfbd 95f5 0cbe ad22 62be
000001f0: 8015 00bf a155 abbe 1746 15bd 9d81 63be
00000200: 6852 cc3e d46e cc3e e8dc b13e c80e 643e
00000210: 87d2 43be 1b72 d53e 4031 bebe b805 f0bd
00000220: 481e a1be 7b9a 1b3e d93d ddbe f33c 61be
00000230: 95cd b0be 8e75 8bbe 2c56 b1bd 0af3 bc3e
00000240: 17ee 1a3e 9af3 813e 7830 03be e1a7 023f
00000250: 98fa 313e aa62 36be 7084 993e 20c5 6a3d
00000260: 7570 a43e 3c97 94be 6746 cbbe 664c a8be
00000270: ebe4 da3d 4eb3 c6bd e5d5 bdbe e04d 163c
00000280: 0a2b af3b fb15 4a3e 2b9b 61be d0e9 75be
00000290: 7548 813e 9fe1 0abe 59ef cc3e 684f d33e
000002a0: a9a7 b3be c4dd 5fbe 4e69 bbbd f82f ddbe
000002b0: 0ff9 45bc bd04 70be 9af3 0bbe d29a bfbe
000002c0: caac 383e 4503 80be 9a4d afbe 0460 13be
000002d0: 6f2e 88be 880a e0be 5374 123e 0085 5dbe
000002e0: 74df 763e bd45 853e 1897 8ebe 9ab1 6dbe
000002f0: d3e9 1bbe c82b 6a3e 3128 623d 2a14 d6bd
00000300: 2688 533e eb62 cb3e ded5 523e a058 91be
00000310: 2170 11be 498c 81bd 6a4f e43e eec6 3cbe
00000320: 7946 01be 1fca 5c3d 756c 883d d8f5 673e
00000330: 551e 523e ddf1 0bbe 2cf5 8b3e 67b0 aa3e
00000340: 783e 343e bbd3 9cbe b991 b33e cc02 b33e
00000350: 51ba 8d3e a780 43bd 84cc 0a3c 2f05 48bd
00000360: 55a0 fb3e d7ec 033f 3c10 ea3c 3fe7 38be
00000370: 3e56 9f3e 548e 8b3e d471 733e d8da 68be
00000380: b289 773d aea7 54be ce62 e3be 5f77 9ebe
00000390: 8cc8 b33d df91 e63d d5b9 a0be bdaa 383e
000003a0: 1719 c93e 6630 ab3e a0ad c43e 9fff 7c3c
000003b0: c990 d73e f184 c63e 1bfb 0f3e 4067 50be
000003c0: bb9c d5bd 1a74 c93e f771 823e 18cd 953e
000003d0: 27d4 23be 5706 91bc 069b 1fbe 99bc 23be
000003e0: 868b ad3e 3643 a8be 92b6 bf3c 085b fd3d
000003f0: e036 fabd 2a06 093e b8ed debd 15f1 583e

attention_blocks.0.convs.0.model.lin_dst.weight f4 [32, 8]
0.1594009 -0.39800262 -0.42369583 -0.2980944 -0.31931967 0.0005310526 -0.35056072 -0.345525
0.17815334 -0.17908731 -0.10616316 -0.35523906 0.1763047 -0.020283828 -0.25012365 -0.29602167
0.22808525 0.21481787 0.37669188 0.24566516 0.14569418 -0.1617913 0.23871729 0.12953755
-0.29757527 0.25498885 0.2710345 -0.3106996 -0.1609518 -0.13966088 -0.3090725 0.15214656
-0.2687607 0.4190313 -0.22356544 0.26099467 -0.033862464 -0.13424858 0.39612746 -0.2605959
-0.31309253 -0.06758535 0.18927538 -0.27943477 -0.3720587 -0.3775195 -0.23227993 -0.2771819
-0.118059516 -0.29815817 0.17023402 -0.028144442 -0.23279674 -0.25858605 0.007540125 -0.020964932
0.2583184 -0.104250774 -0.33166292 -0.3551323 -0.15527318 -0.17531317 -0.011940236 -0.15888472
0.06466642 -0.16225187 0.17565727 0.04085977 -0.21499002 0.2994715 0.11863964 -0.32686403
-0.22520411 0.20739757 0.19445243 0.27320653 -0.014986676 0.23620926 0.08617941 0.023250666
0.019227978 0.430912 0.26109388 0.000639637 0.1759827 0.49094346 0.21963525 0.06456026
0.3372197 0.1063911 -0.17863716 -0.3746362 0.22654164 0.33479396 -0.30624688 0.13345666
0.094066 -0.047594633 0.016887475 0.1559946 0.1976698 0.3138171 0.14329277 0.25089604
0.43399274 0.16169198 0.21416506 -0.06802828 0.4372343 0.1378097 0.2199615 0.45879048
-0.0018023201 0.30851346 0.052054524 0.3934621 0.43243402 -0.08990224 -0.040508654 -0.13422085
-0.21474974 -0.1014442 -0.13765557 -0.2208354 -0.50032806 -0.33463767 -0.036443796 -0.22217412
0.3990662 0.39928305 0.3473885 0.22271264 -0.19123279 0.41688618 -0.3714695 -0.11719841
-0.31468415 0.15195648 -0.4321125 -0.21995907 -0.34531847 -0.27238125 -0.08659014 0.36904174
0.15129887 0.25381166 -0.12811458 0.5103741 0.1738075 -0.17811075 0.29983854 0.0573169
0.32117048 -0.29021633 -0.3970215 -0.32870787 0.10688194 -0.097021684 -0.3707725 0.00917384
0.005345707 0.19734947 -0.22031848 -0.24014974 0.25250593 -0.1356263 0.40026358 0.4127152
-0.35088852 -0.2186194 -0.09150945 -0.4320066 -0.012083306 -0.23439308 -0.13667145 -0.37422806
0.18034664 -0.25002494 -0.34238893 -0.14392096 -0.26597926 -0.43758035 0.14302187 -0.21632767
0.24108678 0.2602977 -0.2784965 -0.23212281 -0.15225916 0.22868264 0.05521411 -0.10453065
0.20657405 0.39723906 0.20589396 -0.28387928 -0.1420293 -0.063255854 0.44591838 -0.1843526
-0.1262454 0.053903695 0.066613115 0.22652376 0.20519383 -0.13666482 0.2733549 0.3333771
0.17601955 -0.30630288 0.35072115 0.3496307 0.2768121 -0.047730114 0.008471612 -0.04883307
0.4914576 0.51533264 0.028572194 -0.18056963 0.31120485 0.27257025 0.2377389 -0.22739732
0.06043405 -0.2076709 -0.4441132 -0.30950448 0.08778486 0.112582915 -0.3139178 0.18033881
0.39276955 0.33435363 0.38413715 0.015441804 0.4210265 0.387733 0.14060633 -0.20351887
-0.104302846 0.3934639 0.25477573 0.29258037 -0.15998898 -0.017703218 -0.1558648 -0.15989913
0.3389551 -0.32863778 0.023402486 0.123708785 -0.12217498 0.13381258 -0.10885185 0.21185715
00000000: fd39 233e 00c7 cbbe a9ee d8be d49f 98be
00000010: de7d a3be 5636 0b3a b27c b3be a7e8 b0be
00000020: d46d 363e aa62 37be 126c d9bd e5e1 b5be
00000030: 3889 343e 452a a6bc 3510 80be 2790 97be
00000040: 2e8f 693e 37f9 5b3e c2dd c03e a68f 7b3e
00000050: db30 153e 9eac 25be 4e72 743e 7ea5 043e
00000060: c95b 98be e68d 823e 09c5 8a3e 0514 9fbe
00000070: 8cd0 24be 4303 0fbe c03e 9ebe 4fcc 1b3e
00000080: 019b 89be 458b d63e 57ee 64be 18a1 853e
00000090: 5eb3 0abd 7678 09be 38d1 ca3e d36c 85be
000000a0: aa4d a0be 306a 8abd 68d1 413e 1312 8fbe
000000b0: 7a7e bebe 3c4a c1be cada 6dbe c9ea 8dbe
000000c0: 30c9 f1bd 30a8 98be d451 2e3e 2c8f e6bc
000000d0: 4562 6ebe 6465 84be 2713 f73b a6be abbc
000000e0: 4f42 843e 6e81 d5bd b9cf a9be e7d3 b5be
000000f0: efff 1ebe 4c85 33be fba0 43bc adb2 22be
00000100: d46f 843d 5b25 26be 80df 333e 935c 273d
00000110: 5826 5cbe 5454 993e 57f9 f23d b95a a7be
00000120: e89b 66be 0760 543e 8a1e 473e bae1 8b3e
00000130: ad8a 75bc d7e0 713e d57e b03d 2e78 be3c
00000140: fe83 9d3c 7fa0 dc3e 19ae 853e 50ad 273a
00000150: cf34 343e f15c fb3e 10e8 603e 2b38 843d
00000160: 0fa8 ac3e 94e3 d93d a9ec 36be 51d0 bfbe
00000170: 88fa 673e 1d6a ab3e 64cc 9cbe dda8 083e
00000180: ada5 c03d 97f2 42bd 9a57 8a3c 0cbd 1f3e
00000190: f469 4a3e a3ac a03e 57bb 123e 7275 803e
000001a0: 4c34 de3e 9592 253e 164e 5b3e 6952 8bbd
000001b0: 2ddd df3e fc1d 0d3e 963d 613e 96e6 ea3e
000001c0: d43b ecba 7af5 9d3e 2037 553d dd73 c93e
000001d0: fe67 dd3e aa1e b8bd 67ec 25bd 3171 09be
000001e0: 5be7 5bbe fac1 cfbd 95f5 0cbe ad22 62be
000001f0: 8015 00bf a155 abbe 1746 15bd 9d81 63be
00000200: 6852 cc3e d46e cc3e e8dc b13e c80e 643e
00000210: 87d2 43be 1b72 d53e 4031 bebe b805 f0bd
00000220: 481e a1be 7b9a 1b3e d93d ddbe f33c 61be
00000230: 95cd b0be 8e75 8bbe 2c56 b1bd 0af3 bc3e
00000240: 17ee 1a3e 9af3 813e 7830 03be e1a7 023f
00000250: 98fa 313e aa62 36be 7084 993e 20c5 6a3d
00000260: 7570 a43e 3c97 94be 6746 cbbe 664c a8be
00000270: ebe4 da3d 4eb3 c6bd e5d5 bdbe e04d 163c
00000280: 0a2b af3b fb15 4a3e 2b9b 61be d0e9 75be
00000290: 7548 813e 9fe1 0abe 59ef cc3e 684f d33e
000002a0: a9a7 b3be c4dd 5fbe 4e69 bbbd f82f ddbe
000002b0: 0ff9 45bc bd04 70be 9af3 0bbe d29a bfbe
000002c0: caac 383e 4503 80be 9a4d afbe 0460 13be
000002d0: 6f2e 88be 880a e0be 5374 123e 0085 5dbe
000002e0: 74df 763e bd45 853e 1897 8ebe 9ab1 6dbe
000002f0: d3e9 1bbe c82b 6a3e 3128 623d 2a14 d6bd
00000300: 2688 533e eb62 cb3e ded5 523e a058 91be
00000310: 2170 11be 498c 81bd 6a4f e43e eec6 3cbe
00000320: 7946 01be 1fca 5c3d 756c 883d d8f5 673e
00000330: 551e 523e ddf1 0bbe 2cf5 8b3e 67b0 aa3e
00000340: 783e 343e bbd3 9cbe b991 b33e cc02 b33e
00000350: 51ba 8d3e a780 43bd 84cc 0a3c 2f05 48bd
00000360: 55a0 fb3e d7ec 033f 3c10 ea3c 3fe7 38be
00000370: 3e56 9f3e 548e 8b3e d471 733e d8da 68be
00000380: b289 773d aea7 54be ce62 e3be 5f77 9ebe
00000390: 8cc8 b33d df91 e63d d5b9 a0be bdaa 383e
000003a0: 1719 c93e 6630 ab3e a0ad c43e 9fff 7c3c
000003b0: c990 d73e f184 c63e 1bfb 0f3e 4067 50be
000003c0: bb9c d5bd 1a74 c93e f771 823e 18cd 953e
000003d0: 27d4 23be 5706 91bc 069b 1fbe 99bc 23be
000003e0: 868b ad3e 3643 a8be 92b6 bf3c 085b fd3d
000003f0: e036 fabd 2a06 093e b8ed debd 15f1 583e

attention_blocks.0.convs.1.model.att_src f4 [1, 1, 32]
0.06454741 -0.22282363 -0.0058127437 0.31851912 0.31186256 0.39751664 -0.28821298 0.009145283
0.1414467 0.26278734 -0.21060817 -0.37679723 0.19407503 -0.21908723 0.45363843 -0.2440282
0.24824035 -0.113329425 -0.33026087 -0.39249 0.1744948 -0.14283527 -0.23187812 0.45054418
0.2027988 0.34886196 -0.21275261 0.038892757 0.11870298 -0.02283357 0.23266363 -0.08150141
00000000: 6f31 843d e12b 64be d478 bebb f014 a33e
00000010: 73ac 9f3e 4d87 cb3e a790 93be 19d6 153c
00000020: 67d7 103e 108c 863e aba9 57be 91eb c0be
00000030: 9bbb 463e 6758 60be 4c43 e83e 87e2 79be
00000040: b832 7e3e 4219 e8bd f417 a9be 73f4 c8be
00000050: c4ae 323e 6943 12be 7571 6dbe baad e63e
00000060: 7daa 4f3e 099e b23e d2db 59be 034e 1f3d
00000070: 8c1a f33d 780d bbbc 603f 6e3e 36ea a6bd

attention_blocks.0.convs.1.model.att_dst f4 [1, 1, 32]
-0.08991886 -0.04762823 -0.1635338 -0.28934154 -0.051545344 -0.15060247 -0.13139999 -0.18504253
0.19470087 -0.07153389 0.33216825 0.12325897 -0.1383021 0.42655876 -0.13187766 -0.35780078
0.29032907 -0.24275282 0.2932809 0.32962993 -0.13813555 -0.17124425 0.1529163 0.21505426
0.32838002 0.11322757 0.03146317 0.3775876 0.101660796 -0.34176633 -0.1093082 -0.02235695
00000000: 6127 b8bd d215 43bd 6875 27be 9324 94be
00000010: 3621 53bd 8937 1abe b88d 06be ca7b 3dbe
00000020: aa5f 473e 5c80 92bd f511 aa3e 336f fc3d
00000030: 119f 0dbe e965 da3e f00a 07be aa31 b7be
00000040: 03a6 943e 3294 78be ea28 963e 41c5 a83e
00000050: 6873 0dbe a75a 2fbe 1796 1c3e 2f37 5c3e
00000060: 6d21 a83e dbe3 e73d 86df 003d 2953 c13e
00000070: 8933 d03d fffb aebe fadc dfbd ec25 b7bc

attention_blocks.0.convs.1.model.bias f4 [32]
0.037653796 -0.027093235 0.07782676 0.061851256 0.016199194 -0.0029734643 -0.022600736 0.0043534664
0.012831303 -0.032052666 0.055408146 0.027732693 0.059899352 -0.008214732 0.068320096 -0.025985582
-0.00058895693 0.0504502 0.036344994 -0.09593561 0.05507739 -0.018747482 0.025239883 -0.043494914
-0.013263542 0.022417113 0.008628352 0.010449532 0.055598665 0.07750376 0.13555162 -0.046410874
00000000: de3a 1a3d a2f2 ddbc a363 9f3d be57 7d3d
00000010: 2cb4 843c 74de 42bb 2e25 b9bc 86a7 8e3b
00000020: 633a 523c a849 03bd a7f3 623d ac2f e33c
00000030: 0659 753d 1597 06bc 68eb 8b3d b7df d4bc
00000040: 3b64 1aba dea4 4e3d 7dde 143d e479 c4bd
00000050: d498 613d 5294 99bc dfc3 ce3c b927 32bd
00000060: 544f 59bc 18a4 b73c ee5d 0d3c 8434 2b3c
00000070: 6dbb 633d 4bba 9e3d 0bce 0a3e 5419 3ebd

attention_blocks.0.convs.1.model.lin_src.weight f4 [32, 32]
-0.2237035 -0.033268303 0.4483807 0.23393579 -0.35382357 -0.3014155 0.1927508 -0.13050346
-0.04151786 -0.06924532 0.292672 0.31039724 0.3551761 0.05778541 0.039720964 -0.1310547
0.39487955 -0.43541268 0.29323876 -0.28991786 -0.061207026 0.1714763 -0.21802793 -0.18090706
-0.04954831 0.21220396 0.307707 -0.15177554 0.13338064 0.047969244 0.12924741 -0.10255364
0.095494084 -0.2839183 -0.22585687 -0.13591555 0.20005111 0.098240085 -0.20613979 0.05737175
0.3159348 -0.32102025 0.23742303 0.21059917 -0.018769493 -0.19831435 0.12777406 0.16154371
-0.13839276 -0.17880753 -0.22489251 -0.11070467 0.020879049 0.1517565 0.0076624732 0.2624856
0.098847106 0.05540929 -0.16945158 -0.09900796 0.20139518 0.13664915 -0.040330883 -0.23024291
-0.4141931 -0.07603822 -0.026072763 -0.120079115 -0.16504505 -0.41603166 0.09937395 -0.19323768
-0.23595496 -0.15711641 -0.10333391 0.018020758 0.12124463 0.28003207 0.13127089 -0.43357912
-0.10164092 -0.30764782 0.41897297 -0.11287859 -0.2561421 -0.24787693 -0.356246 -0.016367827
-0.067603886 0.086979166 0.32538828 -0.059873022 -0.07773875 0.046012715 0.14255944 -0.10120865
-0.22315702 0.06794165 -0.048095852 -0.19632098 -0.1552434 -0.34616262 -0.28092185 -0.21402965
0.019616064 0.03309635 0.13138117 -0.18367356 0.07148606 -0.14036162 0.27290076 0.1630542
-0.1316496 -0.339476 0.47905496 0.16096123 0.1701828 -0.2904507 -0.012356692 -0.09491881
0.1610173 0.31584263 0.057410985 0.20675638 -0.35063925 0.17720227 -0.12233479 0.39645186
-0.18155135 -0.24786933 -0.3293167 -0.06748853 0.13887824 0.0010985147 0.15426695 -0.22433217
-0.21535896 -0.071269736 -0.048218865 -0.10983153 0.096728936 0.10168005 -0.10025075 0.034264635
-0.09160482 0.10474629 -0.20301318 -0.020464022 -0.21108781 0.28748626 0.2571892 -0.15208606
0.041803617 -0.21597707 -0.13548398 -0.30979633 0.018306041 -0.19808657 -0.30099735 0.2419915
0.13121286 0.2484626 -0.0275158 0.041957155 -0.046530526 0.17158824 0.23271726 0.0458414
-0.2020677 0.2023659 -0.073373005 -0.24325389 0.11640233 0.23571296 0.24043296 0.31172028
0.22740118 -0.22496778 -0.0058040246 0.30598032 -0.20539524 0.12557222 -0.035792597 0.047431916
0.16582605 -0.03595918 -0.18304713 -0.08885111 0.16323678 -0.21393815 0.17093569 -0.39218625
-0.2502052 0.066400945 0.0670987 0.14638695 -0.026593793 -0.021681964 0.02200865 0.17090686
-0.21709378 -0.07724711 0.22950236 -0.20018911 0.19105661 0.25818115 0.13811961 -0.25177294
-0.13387132 -0.0161443 -0.09205219 0.094242655 0.065466166 0.025485354 0.22529899 -0.41766602
-0.3437814 0.24207242 -0.027152048 -0.2671376 -0.1394467 0.28457385 -0.023342554 0.24372406
0.118029475 -0.12774237 0.24790512 0.05625919 -0.34981078 -0.12011243 0.13927524 0.049993265
0.0858324 0.013169291 -0.15465204 -0.04324517 0.26751545 0.063789524 -0.11780916 -0.030837437
-0.18622123 -0.13426736 0.102122895 -0.3290972 -0.21122624 -0.2597519 -0.2820443 0.15798675
0.07582593 -0.15568276 -0.04760953 0.27946833 0.21736465 0.108865 0.040695887 -0.12489065
00000000: 8812 65be 5844 08bd 2892 e53e dd8c 6f3e
00000010: 5d28 b5be 2253 9abe 7760 453e b3a2 05be
00000020: a20e 2abd 7ed0 8dbd 1bd9 953e 63ec 9e3e
00000030: a4d9 b53e 65b0 6c3d 73b2 223d 3433 06be
00000040: a72d ca3e 69ee debe 6423 963e 1d70 94be
00000050: 38b4 7abd 7c97 2f3e b742 5fbe b33f 39be
00000060: 2bf3 4abd ff4b 593e c68b 9d3e 0c6b 1bbe
00000070: ef94 083e 667b 443d 6f59 043e a507 d2bd
00000080: 6792 c33d bd5d 91be 0647 67be 722d 0bbe
00000090: 33da 4c3e 1932 c93d 4f16 53be a4fe 6a3d
000000a0: 35c2 a13e c45c a4be 061f 733e 4fa7 573e
000000b0: 7bc2 99bc eb12 4bbe 34d7 023e b76b 253e
000000c0: d5b6 0dbe 5219 37be 394a 66be 21b9 e2bd
000000d0: 8a0a ab3c 0e66 1b3e 7c15 fb3b 8364 863e
000000e0: 5a70 ca3d daf4 623d b784 2dbe afc4 cabd
000000f0: 8a3a 4e3e c1ed 0b3e ff31 25bd ccc4 6bbe
00000100: 1e11 d4be edb9 9bbd 8c96 d5bc 0aec f5bd
00000110: 9201 29be 1a02 d5be 9284 cb3d 19e0 45be
00000120: 2d9e 71be 20e3 20be bba0 d3bd 45a0 933c
00000130: 1b4f f83d 5d60 8f3e e06b 063e 15fe ddbe
00000140: 1d29 d0bd 0484 9dbe a083 d63e e42c e7bd
00000150: 0f25 83be 73d3 7dbe e065 b6be d215 86bc
00000160: e873 8abd 2222 b23d 4b99 a63e 6a3d 75bd
00000170: 7e35 9fbd d477 3c3d 1afb 113e 7b46 cfbd
00000180: 4683 64be fe24 8b3d 2800 45bd 5e08 49be
00000190: 20f8 1ebe 3a3c b1be fdd4 8fbe 972a 5bbe
000001a0: deb1 a03c 0a90 073d c988 063e ec14 3cbe
000001b0: 4967 923d f5ba 0fbe a6b9 8b3e aef7 263e
000001c0: 27cf 06be cccf adbe b146 f53e 05d3 243e
000001d0: 6644 2e3e f4b5 94be b973 4abc cb64 c2bd
000001e0: b8e1 243e 20b6 a13e c827 6b3d f2b7 533e
000001f0: fd86 b3be 8374 353e aa8a fabd bdfb ca3e
00000200: 99e8 39be 75d1 7dbe 339c a8be 6d37 8abd
00000210: 1936 0e3e 09fc 8f3a 28f8 1d3e 55b7 65be
00000220: 0f87 5cbe def5 91bd 2581 45bd 5aef e0bd
00000230: d219 c63d a13d d03d 4450 cdbd 1359 0c3d
00000240: 4f9b bbbd 3985 d63d b0e2 4fbe 2aa4 a7bc
00000250: 6727 58be 6631 933e 4eae 833e 73bc 1bbe
00000260: 453a 2b3d 1829 5dbe 50bc 0abe a09d 9ebe
00000270: 8df6 953c 35d7 4abe 531c 9abe 9fcc 773e
00000280: aa5c 063e fb6c 7e3e d168 e1bc 44db 2b3d
00000290: cb96 3ebd d4b4 2f3e 6f4d 6e3e 31c4 3b3d
000002a0: d6ea 4ebe 0239 4f3e 9644 96bd 8c17 79be
000002b0: 5864 ee3d bd5e 713e 0f34 763e cd99 9f3e
000002c0: dbdb 683e f45d 66be b02f bebb 74a9 9c3e
000002d0: 2153 52be 0196 003e 429b 12bd f847 423d
000002e0: 4ece 293e ef49 13bd b570 3bbe 92f7 b5bd
000002f0: 8b27 273e 9a12 5bbe c409 2f3e a3cc c8be
00000300: e51a 80be 38fd 873d 0b6b 893d 76e6 153e
00000310: 3adb d9bc 609e b1bc 7c4b b43c 3502 2f3e
00000320: d54d 5ebe bc33 9ebd ab02 6b3e 60fe 4cbe
00000330: 58a4 433e 5230 843e 3a6f 0d3e 62e8 80be
00000340: 9015 09be 0d41 84bc dc85 bcbd 4b02 c13d
00000350: 2013 863d a9c6 d03c c7b4 663e 52d8 d5be
00000360: 1e04 b0be d5e1 773e f96d debc 42c6 88be
00000370: 1ecb 0ebe aab3 913e e238 bfbc cd92 793e
00000380: 70b9 f13d e5ce 02be d7da 7d3e 0970 663d
00000390: 661a b3be 81fd f5bd 2b9e 0e3e bdc5 4c3d
000003a0: e6c8 af3d 03c4 573c 1b5d 1ebe d921 31bd
000003b0: c9f7 883e 15a4 823d ee45 f1bd cb9e fcbc
000003c0: c7b0 3ebe 627d 09be cf25 d13d 6e7f a8be
000003d0: b14b 58be 33fe 84be 1c68 90be 47c7 213e
000003e0: a04a 9b3d 4d6b 1fbe 3602 43bd 7916 8f3e
000003f0: d794 5e3e 9df4 de3d bbb0 263d abc6 ffbd

attention_blocks.0.convs.1.model.lin_dst.weight f4 [32, 32]
-0.2237035 -0.033268303 0.4483807 0.23393579 -0.35382357 -0.3014155 0.1927508 -0.13050346
-0.04151786 -0.06924532 0.292672 0.31039724 0.3551761 0.05778541 0.039720964 -0.1310547
0.39487955 -0.43541268 0.29323876 -0.28991786 -0.061207026 0.1714763 -0.21802793 -0.18090706
-0.04954831 0.21220396 0.307707 -0.15177554 0.13338064 0.047969244 0.12924741 -0.10255364
0.095494084 -0.2839183 -0.22585687 -0.13591555 0.20005111 0.098240085 -0.20613979 0.05737175
0.3159348 -0.32102025 0.23742303 0.21059917 -0.018769493 -0.19831435 0.12777406 0.16154371
-0.13839276 -0.17880753 -0.22489251 -0.11070467 0.020879049 0.1517565 0.0076624732 0.2624856
0.098847106 0.05540929 -0.16945158 -0.09900796 0.20139518 0.13664915 -0.040330883 -0.23024291
-0.4141931 -0.07603822 -0.026072763 -0.120079115 -0.16504505 -0.41603166 0.09937395 -0.19323768
-0.23595496 -0.15711641 -0.10333391 0.018020758 0.12124463 0.28003207 0.13127089 -0.43357912
-0.10164092 -0.30764782 0.41897297 -0.11287859 -0.2561421 -0.24787693 -0.356246 -0.016367827
-0.067603886 0.086979166 0.32538828 -0.059873022 -0.07773875 0.046012715 0.14255944 -0.10120865
-0.22315702 0.06794165 -0.048095852 -0.19632098 -0.1552434 -0.34616262 -0.28092185 -0.21402965
0.019616064 0.03309635 0.13138117 -0.18367356 0.07148606 -0.14036162 0.27290076 0.1630542
-0.1316496 -0.339476 0.47905496 0.16096123 0.1701828 -0.2904507 -0.012356692 -0.09491881
0.1610173 0.31584263 0.057410985 0.20675638 -0.35063925 0.17720227 -0.12233479 0.39645186
-0.18155135 -0.24786933 -0.3293167 -0.06748853 0.13887824 0.0010985147 0.15426695 -0.22433217
-0.21535896 -0.071269736 -0.048218865 -0.10983153 0.096728936 0.10168005 -0.10025075 0.034264635
-0.09160482 0.10474629 -0.20301318 -0.020464022 -0.21108781 0.28748626 0.2571892 -0.15208606
0.041803617 -0.21597707 -0.13548398 -0.30979633 0.018306041 -0.19808657 -0.30099735 0.2419915
0.13121286 0.2484626 -0.0275158 0.041957155 -0.046530526 0.17158824 0.23271726 0.0458414
-0.2020677 0.2023659 -0.073373005 -0.24325389 0.11640233 0.23571296 0.24043296 0.31172028
0.22740118 -0.22496778 -0.0058040246 0.30598032 -0.20539524 0.12557222 -0.035792597 0.047431916
0.16582605 -0.03595918 -0.18304713 -0.08885111 0.16323678 -0.21393815 0.17093569 -0.39218625
-0.2502052 0.066400945 0.0670987 0.14638695 -0.026593793 -0.021681964 0.02200865 0.17090686
-0.21709378 -0.07724711 0.22950236 -0.20018911 0.19105661 0.25818115 0.13811961 -0.25177294
-0.13387132 -0.0161443 -0.09205219 0.094242655 0.065466166 0.025485354 0.22529899 -0.41766602
-0.3437814 0.24207242 -0.027152048 -0.2671376 -0.1394467 0.28457385 -0.023342554 0.24372406
0.118029475 -0.12774237 0.24790512 0.05625919 -0.34981078 -0.12011243 0.13927524 0.049993265
0.0858324 0.013169291 -0.15465204 -0.04324517 0.26751545 0.063789524 -0.11780916 -0.030837437
-0.18622123 -0.13426736 0.102122895 -0.3290972 -0.21122624 -0.2597519 -0.2820443 0.15798675
0.07582593 -0.15568276 -0.04760953 0.27946833 0.21736465 0.108865 0.040695887 -0.12489065
00000000: 8812 65be 5844 08bd 2892 e53e dd8c 6f3e
00000010: 5d28 b5be 2253 9abe 7760 453e b3a2 05be
00000020: a20e 2abd 7ed0 8dbd 1bd9 953e 63ec 9e3e
00000030: a4d9 b53e 65b0 6c3d 73b2 223d 3433 06be
00000040: a72d ca3e 69ee debe 6423 963e 1d70 94be
00000050: 38b4 7abd 7c97 2f3e b742 5fbe b33f 39be
00000060: 2bf3 4abd ff4b 593e c68b 9d3e 0c6b 1bbe
00000070: ef94 083e 667b 443d 6f59 043e a507 d2bd
00000080: 6792 c33d bd5d 91be 0647 67be 722d 0bbe
00000090: 33da 4c3e 1932 c93d 4f16 53be a4fe 6a3d
000000a0: 35c2 a13e c45c a4be 061f 733e 4fa7 573e
000000b0: 7bc2 99bc eb12 4bbe 34d7 023e b76b 253e
000000c0: d5b6 0dbe 5219 37be 394a 66be 21b9 e2bd
000000d0: 8a0a ab3c 0e66 1b3e 7c15 fb3b 8364 863e
000000e0: 5a70 ca3d daf4 623d b784 2dbe afc4 cabd
000000f0: 8a3a 4e3e c1ed 0b3e ff31 25bd ccc4 6bbe
00000100: 1e11 d4be edb9 9bbd 8c96 d5bc 0aec f5bd
00000110: 9201 29be 1a02 d5be 9284 cb3d 19e0 45be
00000120: 2d9e 71be 20e3 20be bba0 d3bd 45a0 933c
00000130: 1b4f f83d 5d60 8f3e e06b 063e 15fe ddbe
00000140: 1d29 d0bd 0484 9dbe a083 d63e e42c e7bd
00000150: 0f25 83be 73d3 7dbe e065 b6be d215 86bc
00000160: e873 8abd 2222 b23d 4b99 a63e 6a3d 75bd
00000170: 7e35 9fbd d477 3c3d 1afb 113e 7b46 cfbd
00000180: 4683 64be fe24 8b3d 2800 45bd 5e08 49be
00000190: 20f8 1ebe 3a3c b1be fdd4 8fbe 972a 5bbe
000001a0: deb1 a03c 0a90 073d c988 063e ec14 3cbe
000001b0: 4967 923d f5ba 0fbe a6b9 8b3e aef7 263e
000001c0: 27cf 06be cccf adbe b146 f53e 05d3 243e
000001d0: 6644 2e3e f4b5 94be b973 4abc cb64 c2bd
000001e0: b8e1 243e 20b6 a13e c827 6b3d f2b7 533e
000001f0: fd86 b3be 8374 353e aa8a fabd bdfb ca3e
00000200: 99e8 39be 75d1 7dbe 339c a8be 6d37 8abd
00000210: 1936 0e3e 09fc 8f3a 28f8 1d3e 55b7 65be
00000220: 0f87 5cbe def5 91bd 2581 45bd 5aef e0bd
00000230: d219 c63d a13d d03d 4450 cdbd 1359 0c3d
00000240: 4f9b bbbd 3985 d63d b0e2 4fbe 2aa4 a7bc
00000250: 6727 58be 6631 933e 4eae 833e 73bc 1bbe
00000260: 453a 2b3d 1829 5dbe 50bc 0abe a09d 9ebe
00000270: 8df6 953c 35d7 4abe 531c 9abe 9fcc 773e
00000280: aa5c 063e fb6c 7e3e d168 e1bc 44db 2b3d
00000290: cb96 3ebd d4b4 2f3e 6f4d 6e3e 31c4 3b3d
000002a0: d6ea 4ebe 0239 4f3e 9644 96bd 8c17 79be
000002b0: 5864 ee3d bd5e 713e 0f34 763e cd99 9f3e
000002c0: dbdb 683e f45d 66be b02f bebb 74a9 9c3e
000002d0: 2153 52be 0196 003e 429b 12bd f847 423d
000002e0: 4ece 293e ef49 13bd b570 3bbe 92f7 b5bd
000002f0: 8b27 273e 9a12 5bbe c409 2f3e a3cc c8be
00000300: e51a 80be 38fd 873d 0b6b 893d 76e6 153e
00000310: 3adb d9bc 609e b1bc 7c4b b43c 3502 2f3e
00000320: d54d 5ebe bc33 9ebd ab02 6b3e 60fe 4cbe
00000330: 58a4 433e 5230 843e 3a6f 0d3e 62e8 80be
00000340: 9015 09be 0d41 84bc dc85 bcbd 4b02 c13d
00000350: 2013 863d a9c6 d03c c7b4 663e 52d8 d5be
00000360: 1e04 b0be d5e1 773e f96d debc 42c6 88be
00000370: 1ecb 0ebe aab3 913e e238 bfbc cd92 793e
00000380: 70b9 f13d e5ce 02be d7da 7d3e 0970 663d
00000390: 661a b3be 81fd f5bd 2b9e 0e3e bdc5 4c3d
000003a0: e6c8 af3d 03c4 573c 1b5d 1ebe d921 31bd
000003b0: c9f7 883e 15a4 823d ee45 f1bd cb9e fcbc
000003c0: c7b0 3ebe 627d 09be cf25 d13d 6e7f a8be
000003d0: b14b 58be 33fe 84be 1c68 90be 47c7 213e
000003e0: a04a 9b3d 4d6b 1fbe 3602 43bd 7916 8f3e
000003f0: d794 5e3e 9df4 de3d bbb0 263d abc6 ffbd

attention_blocks.0.convs.2.model.att_src f4 [1, 1, 8]
-0.5947363 0.20236863 -0.19552913 -0.4871613 -0.6348961 0.7415973 -0.37105083 0.82831955
00000000: a340 18bf b939 4f3e ca38 48be 356d f9be
00000010: 8d88 22bf 52d9 3d3f 60fa bdbe c00c 543f

attention_blocks.0.convs.2.model.att_dst f4 [1, 1, 8]
-0.56002164 0.39413887 -0.31500807 0.59181404 0.7904343 0.68581873 -0.4127212 -0.22057849
00000000: 945d 0fbf 92cc c93e bd48 a1be 2081 173f
00000010: e759 4a3f d191 2f3f 3150 d3be 54df 61be

attention_blocks.0.convs.2.model.bias f4 [8]
-0.029348606 -0.059469253 -0.115706004 0.041011862 -0.018591044 0.017286202 -0.0056227804 0.06015362
00000000: 7d6c f0bc 0896 73bd 45f7 ecbd 0efc 273d
00000010: 3f4c 98bc cb9b 8d3c 4d3f b8bb a463 763d

attention_blocks.0.convs.2.model.lin_src.weight f4 [8, 32]
-0.1003597 0.029618748 -0.24188933 0.22780168 -0.36788595 -0.17117473 0.12816767 0.10907792
0.19478722 -0.07636075 0.06389556 -0.33923873 -0.12698737 0.03411759 -0.38902017 -0.18778205
0.09062045 -0.49741852 0.25973845 -0.18968663 -0.24509732 0.23906448 -0.09363649 0.17588891
0.3506523 0.30065325 0.41840872 -0.34958807 0.36410612 0.136231 0.10169568 -0.013686268
-0.20189962 -0.2892917 -0.002239188 -0.35225794 -0.4046462 0.33126265 -0.12716301 -0.34323293
-0.39018017 0.10204534 -0.255281 -0.09504286 -0.25513583 -0.15433921 0.20545824 0.35637492
0.21070924 -0.06029942 -0.032533303 -0.29057783 -0.25369552 0.19659595 -0.26174492 0.29372913
-0.2370245 -0.35623726 0.25793856 0.3731092 0.31784403 -0.24895254 -0.36424497 0.35439897
-0.5197459 0.30385548 0.30193582 -0.08556817 0.38680866 -0.3134093 0.1782574 0.33436117
0.37628165 0.07722267 0.12334254 -0.2392582 -0.060472094 0.051837135 -0.068335466 0.120803565
0.052731603 0.22101 -0.45170316 0.0523184 -0.41131073 0.11621898 0.27026823 -0.23831786
-0.09010338 -0.37814063 0.48685342 -0.12848191 -0.21665944 -0.1753825 -0.072605535 -0.18942696
-0.028613698 -0.26891533 0.40573668 0.36307466 0.2051756 -0.1474538 -0.13546571 0.36376235
-0.24585044 -0.2907577 0.22508459 0.24083623 0.32300588 0.11074478 -0.026301485 -0.33603144
-0.07014316 0.1672411 -0.109185174 -0.12615651 0.21799952 -0.12733907 0.029874925 -0.35320568
-0.09496668 0.15583129 0.19379903 0.074828744 0.2230312 0.34142157 0.23710984 0.22326115
0.55892247 0.033512793 0.3429661 0.25615597 -0.412201 -0.19097516 0.38753536 0.37492234
-0.19377986 0.18800585 0.38581413 -0.2980315 -0.090287335 0.4256074 -0.0021344845 0.12904075
0.19641429 0.025274774 0.43128982 0.40866888 -0.44836834 0.05516881 0.14498481 0.19103551
-0.19882864 0.21984339 -0.010477167 0.2577653 0.12869026 0.35113904 0.0067315726 0.039968893
0.39015207 0.2614931 0.12682487 -0.3688334 0.16487238 0.021040186 -0.3604485 -0.3769084
0.045917306 -0.04196029 0.31075794 0.023602841 -0.31374165 -0.076128066 0.22447304 0.044660397
0.35367864 0.33213097 0.153545 0.35533178 -0.23753199 0.042876527 -0.13751782 -0.10753692
0.04481787 0.25733125 -0.09467915 0.16369487 0.29726925 0.065829165 -0.054649312 -0.3325576
-0.11905788 -0.04914638 0.11179406 -0.03789911 -0.41306603 -0.22430657 0.32080433 -0.0071688304
-0.4007469 -0.35177693 -0.13897237 -0.35055813 0.33512282 0.3655152 -0.008211814 0.3074724
0.10830725 -0.19428585 0.0024187502 -0.07852713 -0.12632881 0.20711197 0.0022977109 0.27960327
0.15745893 0.28839538 0.058350783 0.060003232 0.24736977 -0.14313874 0.017278459 0.23048408
0.11455677 -0.114952676 0.25897494 0.22691642 -0.3603462 -0.047060177 -0.15120937 0.23919676
0.016579023 0.020419817 0.27564496 -0.013431534 0.3241222 0.004514202 0.32543978 0.16134064
0.4232763 0.06241367 0.15007022 -0.3220715 0.39958966 -0.019422667 0.19006394 -0.3200613
-0.14513181 0.39309344 -0.3133912 0.20483707 0.277143 0.31010434 0.43789735 -0.20650023
00000000: 6389 cdbd 04a3 f23c d6b1 77be d844 693e
00000010: 8c5b bcbe 6e48 2fbe 633e 033e 3f64 df3d
00000020: 4d76 473e 0663 9cbd addb 823d b3b0 adbe
00000030: fa08 02be e3be 0b3d a72d c7be f049 40be
00000040: 3797 b93d a4ad febe 70fc 843e 363d 42be
00000050: cbfa 7abe 52cd 743e 7dc4 bfbd 391c 343e
00000060: b388 b33e 39ef 993e ab39 d63e 35fd b2be
00000070: 1e6c ba3e 2480 0b3e d345 d03d 5e3c 60bc
00000080: c6be 4ebe 0b1e 94be 57bf 12bb 275b b4be
00000090: c92d cfbe 429b a93e 0537 02be 3abc afbe
000000a0: b2c5 c7be 26fd d03d 31b4 82be d5a5 c2bd
000000b0: 2aa1 82be 190b 1ebe a563 523e c676 b63e
000000c0: 2ac4 573e 86fc 76bd a441 05bd 9ec6 94be
000000d0: 61e4 81be 7350 493e 6e03 86be aa63 963e
000000e0: 8db6 72be bb64 b6be 8610 843e 2b08 bf3e
000000f0: 74bc a23e 6aed 7ebe 517e babe c873 b53e
00000100: 110e 05bf f292 9b3e 5597 9a3e 5d3e afbd
00000110: c90b c63e 2f77 a0be 1c89 363e 6331 ab3e
00000120: fda7 c03e eb26 9e3d 039b fc3d 1a00 75be
00000130: 96b1 77bd 2d53 543d 77f3 8bbd dc67 f73d
00000140: 18fd 573d 7250 623e a345 e7be d24b 563d
00000150: 5297 d2be 3704 ee3d 9960 8a3e 9909 74be
00000160: 1f88 b8bd a69b c1be da44 f93e c390 03be
00000170: f9db 5dbe 7897 33be 36b2 94bd 24f9 41be
00000180: 4667 eabc 45af 89be b8bc cf3e ece4 b93e
00000190: 8d19 523e 21fe 16be 86b7 0abe 0f3f ba3e
000001a0: 38c0 7bbe 31de 94be 937c 663e c69d 763e
000001b0: 0761 a53e 29ce e23d 3676 d7bc 500c acbe
000001c0: 38a7 8fbd 4041 2b3e 7a9c dfbd 2c2f 01be
000001d0: 443b 5f3e 2c65 02be 42bc f43c 60d7 b4be
000001e0: e47d c2bd 3d92 1f3e 4173 463e d03f 993d
000001f0: 4a62 643e cfce ae3e eccc 723e 929e 643e
00000200: 8b15 0f3f b644 093d 4199 af3e e026 833e
00000210: 020c d3be fe8e 43be 096b c63e d2f5 bf3e
00000220: 3a6e 46be 9b84 403e 6e89 c53e 9697 98be
00000230: 91e8 b8bd 37e9 d93e b5e2 0bbb 4223 043e
00000240: d420 493e 0b0d cf3c 05d2 dc3e 0c3d d13e
00000250: 8990 e5be b1f8 613d e676 143e d09e 433e
00000260: bc99 4bbe a01e 613e 6ca8 2bbc d0f9 833e
00000270: 61c7 033e 7fc8 b33e 8694 dc3b 6cb6 233d
00000280: 03c2 c73e 6ce2 853e 61de 013e bbd7 bcbe
00000290: 4ed4 283e 785c ac3c b58c b8be 23fa c0be
000002a0: c913 3c3d 8ede 2bbd aa1b 9f3e bf5a c13c
000002b0: bfa2 a0be 08e9 9bbd 43dc 653e d2ed 363d
000002c0: 5e15 b53e 120d aa3e e73a 1d3e 0cee b53e
000002d0: 963b 73be 4c9f 2f3d 79d1 0cbe 513c dcbd
000002e0: f192 373d ecc0 833e 24e7 c1bd a19f 273e
000002f0: ad33 983e 71d1 863d f5d7 5fbd fd44 aabe
00000300: 9ed4 f3bd b74d 49bd 49f4 e43d 193c 1bbd
00000310: 647d d3be 9fb0 65be 7740 a43e 82e8 eabb
00000320: b32e cdbe 1b1c b4be c64e 0ebe 5b7c b3be
00000330: 3895 ab3e cf24 bb3e d88a 06bc 066d 9d3e
00000340: 31d0 dd3d dff2 46be e583 1e3b d5d2 a0bd
00000350: 575c 01be 2915 543e 3195 163b 2928 8f3e
00000360: ea3c 213e 8fa8 933e 3b01 6f3d f3c5 753d
00000370: 804e 7d3e f692 12be 8e8b 8d3c 0504 6c3e
00000380: bd9c ea3d 4f6c ebbd 5d98 843e c75c 683e
00000390: 4c7f b8be 2cc2 40bd a1d6 1abe ffef 743e
000003a0: bbd0 873c 7647 a73c 5621 8d3e f00f 5cbc
000003b0: 58f3 a53e dfeb 933b 0ba0 a63e 7b36 253e
000003c0: acb7 d83e 7aa5 7f3d 02ac 193e 8ee6 a4be
000003d0: 0497 cc3e 491c 9fbc 1fa0 423e 13df a3be
000003e0: 6f9d 14be 8b43 c93e d074 a0be cfc0 513e
000003f0: b0e5 8d3e ffc5 9e3e 1534 e03e cc74 53be

attention_blocks.0.convs.2.model.lin_dst.weight f4 [8, 32]
-0.1003597 0.029618748 -0.24188933 0.22780168 -0.36788595 -0.17117473 0.12816767 0.10907792
0.19478722 -0.07636075 0.06389556 -0.33923873 -0.12698737 0.03411759 -0.38902017 -0.18778205
0.09062045 -0.49741852 0.25973845 -0.18968663 -0.24509732 0.23906448 -0.09363649 0.17588891
0.3506523 0.30065325 0.41840872 -0.34958807 0.36410612 0.136231 0.10169568 -0.013686268
-0.20189962 -0.2892917 -0.002239188 -0.35225794 -0.4046462 0.33126265 -0.12716301 -0.34323293
-0.39018017 0.10204534 -0.255281 -0.09504286 -0.25513583 -0.15433921 0.20545824 0.35637492
0.21070924 -0.06029942 -0.032533303 -0.29057783 -0.25369552 0.19659595 -0.26174492 0.29372913
-0.2370245 -0.35623726 0.25793856 0.3731092 0.31784403 -0.24895254 -0.36424497 0.35439897
-0.5197459 0.30385548 0.30193582 -0.08556817 0.38680866 -0.3134093 0.1782574 0.33436117
0.37628165 0.07722267 0.12334254 -0.2392582 -0.060472094 0.051837135 -0.068335466 0.120803565
0.052731603 0.22101 -0.45170316 0.0523184 -0.41131073 0.11621898 0.27026823 -0.23831786
-0.09010338 -0.37814063 0.48685342 -0.12848191 -0.21665944 -0.1753825 -0.072605535 -0.18942696
-0.028613698 -0.26891533 0.40573668 0.36307466 0.2051756 -0.1474538 -0.13546571 0.36376235
-0.24585044 -0.2907577 0.22508459 0.24083623 0.32300588 0.11074478 -0.026301485 -0.33603144
-0.07014316 0.1672411 -0.109185174 -0.12615651 0.21799952 -0.12733907 0.029874925 -0.35320568
-0.09496668 0.15583129 0.19379903 0.074828744 0.2230312 0.34142157 0.23710984 0.22326115
0.55892247 0.033512793 0.3429661 0.25615597 -0.412201 -0.19097516 0.38753536 0.37492234
-0.19377986 0.18800585 0.38581413 -0.2980315 -0.090287335 0.4256074 -0.0021344845 0.12904075
0.19641429 0.025274774 0.43128982 0.40866888 -0.44836834 0.05516881 0.14498481 0.19103551
-0.19882864 0.21984339 -0.010477167 0.2577653 0.12869026 0.35113904 0.0067315726 0.039968893
0.39015207 0.2614931 0.12682487 -0.3688334 0.16487238 0.021040186 -0.3604485 -0.3769084
0.045917306 -0.04196029 0.31075794 0.023602841 -0.31374165 -0.076128066 0.22447304 0.044660397
0.35367864 0.33213097 0.153545 0.35533178 -0.23753199 0.042876527 -0.13751782 -0.10753692
0.04481787 0.25733125 -0.09467915 0.16369487 0.29726925 0.065829165 -0.054649312 -0.3325576
-0.11905788 -0.04914638 0.11179406 -0.03789911 -0.41306603 -0.22430657 0.32080433 -0.0071688304
-0.4007469 -0.35177693 -0.13897237 -0.35055813 0.33512282 0.3655152 -0.008211814 0.3074724
0.10830725 -0.19428585 0.0024187502 -0.07852713 -0.12632881 0.20711197 0.0022977109 0.27960327
0.15745893 0.28839538 0.058350783 0.060003232 0.24736977 -0.14313874 0.017278459 0.23048408
0.11455677 -0.114952676 0.25897494 0.22691642 -0.3603462 -0.047060177 -0.15120937 0.23919676
0.016579023 0.020419817 0.27564496 -0.013431534 0.3241222 0.004514202 0.32543978 0.16134064
0.4232763 0.06241367 0.15007022 -0.3220715 0.39958966 -0.019422667 0.19006394 -0.3200613
-0.14513181 0.39309344 -0.3133912 0.20483707 0.277143 0.31010434 0.43789735 -0.20650023
00000000: 6389 cdbd 04a3 f23c d6b1 77be d844 693e
00000010: 8c5b bcbe 6e48 2fbe 633e 033e 3f64 df3d
00000020: 4d76 473e 0663 9cbd addb 823d b3b0 adbe
00000030: fa08 02be e3be 0b3d a72d c7be f049 40be
00000040: 3797 b93d a4ad febe 70fc 843e 363d 42be
00000050: cbfa 7abe 52cd 743e 7dc4 bfbd 391c 343e
00000060: b388 b33e 39ef 993e ab39 d63e 35fd b2be
00000070: 1e6c ba3e 2480 0b3e d345 d03d 5e3c 60bc
00000080: c6be 4ebe 0b1e 94be 57bf 12bb 275b b4be
00000090: c92d cfbe 429b a93e 0537 02be 3abc afbe
000000a0: b2c5 c7be 26fd d03d 31b4 82be d5a5 c2bd
000000b0: 2aa1 82be 190b 1ebe a563 523e c676 b63e
000000c0: 2ac4 573e 86fc 76bd a441 05bd 9ec6 94be
000000d0: 61e4 81be 7350 493e 6e03 86be aa63 963e
000000e0: 8db6 72be bb64 b6be 8610 843e 2b08 bf3e
000000f0: 74bc a23e 6aed 7ebe 517e babe c873 b53e
00000100: 110e 05bf f292 9b3e 5597 9a3e 5d3e afbd
00000110: c90b c63e 2f77 a0be 1c89 363e 6331 ab3e
00000120: fda7 c03e eb26 9e3d 039b fc3d 1a00 75be
00000130: 96b1 77bd 2d53 543d 77f3 8bbd dc67 f73d
00000140: 18fd 573d 7250 623e a345 e7be d24b 563d
00000150: 5297 d2be 3704 ee3d 9960 8a3e 9909 74be
00000160: 1f88 b8bd a69b c1be da44 f93e c390 03be
00000170: f9db 5dbe 7897 33be 36b2 94bd 24f9 41be
00000180: 4667 eabc 45af 89be b8bc cf3e ece4 b93e
00000190: 8d19 523e 21fe 16be 86b7 0abe 0f3f ba3e
000001a0: 38c0 7bbe 31de 94be 937c 663e c69d 763e
000001b0: 0761 a53e 29ce e23d 3676 d7bc 500c acbe
000001c0: 38a7 8fbd 4041 2b3e 7a9c dfbd 2c2f 01be
000001d0: 443b 5f3e 2c65 02be 42bc f43c 60d7 b4be
000001e0: e47d c2bd 3d92 1f3e 4173 463e d03f 993d
000001f0: 4a62 643e cfce ae3e eccc 723e 929e 643e
00000200: 8b15 0f3f b644 093d 4199 af3e e026 833e
00000210: 020c d3be fe8e 43be 096b c63e d2f5 bf3e
00000220: 3a6e 46be 9b84 403e 6e89 c53e 9697 98be
00000230: 91e8 b8bd 37e9 d93e b5e2 0bbb 4223 043e
00000240: d420 493e 0b0d cf3c 05d2 dc3e 0c3d d13e
00000250: 8990 e5be b1f8 613d e676 143e d09e 433e
00000260: bc99 4bbe a01e 613e 6ca8 2bbc d0f9 833e
00000270: 61c7 033e 7fc8 b33e 8694 dc3b 6cb6 233d
00000280: 03c2 c73e 6ce2 853e 61de 013e bbd7 bcbe
00000290: 4ed4 283e 785c ac3c b58c b8be 23fa c0be
000002a0: c913 3c3d 8ede 2bbd aa1b 9f3e bf5a c13c
000002b0: bfa2 a0be 08e9 9bbd 43dc 653e d2ed 363d
000002c0: 5e15 b53e 120d aa3e e73a 1d3e 0cee b53e
000002d0: 963b 73be 4c9f 2f3d 79d1 0cbe 513c dcbd
000002e0: f192 373d ecc0 833e 24e7 c1bd a19f 273e
000002f0: ad33 983e 71d1 863d f5d7 5fbd fd44 aabe
00000300: 9ed4 f3bd b74d 49bd 49f4 e43d 193c 1bbd
00000310: 647d d3be 9fb0 65be 7740 a43e 82e8 eabb
00000320: b32e cdbe 1b1c b4be c64e 0ebe 5b7c b3be
00000330: 3895 ab3e cf24 bb3e d88a 06bc 066d 9d3e
00000340: 31d0 dd3d dff2 46be e583 1e3b d5d2 a0bd
00000350: 575c 01be 2915 543e 3195 163b 2928 8f3e
00000360: ea3c 213e 8fa8 933e 3b01 6f3d f3c5 753d
00000370: 804e 7d3e f692 12be 8e8b 8d3c 0504 6c3e
00000380: bd9c ea3d 4f6c ebbd 5d98 843e c75c 683e
00000390: 4c7f b8be 2cc2 40bd a1d6 1abe ffef 743e
000003a0: bbd0 873c 7647 a73c 5621 8d3e f00f 5cbc
000003b0: 58f3 a53e dfeb 933b 0ba0 a63e 7b36 253e
000003c0: acb7 d83e 7aa5 7f3d 02ac 193e 8ee6 a4be
000003d0: 0497 cc3e 491c 9fbc 1fa0 423e 13df a3be
000003e0: 6f9d 14be 8b43 c93e d074 a0be cfc0 513e
000003f0: b0e5 8d3e ffc5 9e3e 1534 e03e cc74 53be

attention_blocks.1.convs.0.model.att_src f4 [1, 1, 32]
-0.4008821 -0.251372 -0.3440473 0.36096823 -0.19815458 0.30772337 -0.19842899 0.15300076
0.30565897 -0.21836445 0.19630504 0.1966413 0.10319379 -0.17792003 -0.31800067 0.10797129
-0.3898531 -0.15525243 0.0803692 0.25673866 0.32118702 -0.35996225 -0.20630325 -0.028793653
-0.004823811 -0.11077431 -0.26524183 -0.114979185 -0.0915308 -0.27106512 0.1388201 -0.31092173
00000000: 6b40 cdbe d5b3 80be f826 b0be d4d0 b83e
00000010: 09e9 4abe eb8d 9d3e f830 4bbe 3bac 1c3e
00000020: 557f 9c3e ee9a 5fbe 3004 493e 565c 493e
00000030: 4457 d33d ab30 36be fcd0 a2be 0d20 dd3d
00000040: d39a c7be 7efa 1ebe 9b98 a43d 4073 833e
00000050: a072 a43e f94c b8be 2941 53be abe0 ebbc
00000060: 0f11 9ebb a4dd e2bd c7cd 87be 357a ebbd
00000070: 8074 bbbd 0cc9 8abe db26 0e3e 2231 9fbe

attention_blocks.1.convs.0.model.att_dst f4 [1, 1, 32]
-0.35732302 0.069504514 -0.20440997 0.37168124 -0.27859092 -0.28303623 0.408814 0.085839085
0.40332004 0.384756 0.41610053 0.3296312 0.24642138 -0.24704935 -0.123399004 -0.054197937
0.0043095374 0.34039176 0.12872604 -0.3973985 0.11289267 0.028173482 0.20209129 -0.18785353
0.35521743 -0.29724544 0.32955948 0.38938543 -0.34329343 -0.27936912 0.27668044 -0.3347063
00000000: 0bf3 b6be 6258 8e3d d950 51be 014d be3e
00000010: 78a3 8ebe 20ea 90be 1250 d13e 67cc af3d
00000020: f77f ce3e bdfe c43e 210b d53e 6cc5 a83e
00000030: e355 7c3e 81fa 7cbe 9eb8 fcbd a8fe 5dbd
00000040: 0537 8d3b d447 ae3e c2d0 033e d177 cbbe
00000050: 4634 e73d 13cc e63c 05f1 4e3e ad5c 40be
00000060: 0fdf b53e 8e30 98be 05bc a83e 875d c73e
00000070: 28c4 afbe 7809 8fbe 0fa9 8d3e a05e abbe

attention_blocks.1.convs.0.model.bias f4 [32]
0.13000095 0.035645716 -0.06690257 0.03977697 0.013360931 -0.017462468 0.12652269 0.0852329
-0.072510965 -0.028649347 0.048316985 0.014896396 0.0011802554 0.021972835 0.05644802 -0.061480295
-0.07213299 0.074625954 -0.080499426 0.065326 -0.036476754 -0.06981598 -0.014156995 -0.038816947
0.01912568 -0.040063452 0.03202952 -0.0050170855 0.02912519 -0.037895456 -0.039294317 0.07888746
00000000: f81e 053e 3e01 123d 3704 89bd 2ded 223d
00000010: cee7 5a3c 730d 8fbc 2a8f 013e 968e ae3d
00000020: a180 94bd 09b2 eabc 08e8 453d 0310 743c
00000030: cdb2 9a3a 6000 b43c 0a36 673d c3d2 7bbd
00000040: 76ba 93bd 7ed5 983d e2dc a4bd a3c9 853d
00000050: a668 15bd aefb 8ebd bef2 67bc 85fe 1ebd
00000060: 75ad 9c3c 9319 24bd 6331 033d 5d66 a4bb
00000070: f397 ee3c 4438 1bbd 14f3 20bd c08f a13d
